(1) load texts...
(2) doc to var...
Found 65606 unique tokens.
Shape of data tensor: (21924, 100)
Shape of label tensor: (21924, 12)
(3) split data set...
train docs: 14031
val docs: 3508
test docs: 4385
(5) training model...
_________________________________________________________________
Layer (type)                 Output Shape              Param #   
=================================================================
embedding_1 (Embedding)      (None, 100, 200)          13121400  
_________________________________________________________________
dropout_1 (Dropout)          (None, 100, 200)          0         
_________________________________________________________________
conv1d_1 (Conv1D)            (None, 98, 250)           150250    
_________________________________________________________________
max_pooling1d_1 (MaxPooling1 (None, 32, 250)           0         
_________________________________________________________________
flatten_1 (Flatten)          (None, 8000)              0         
_________________________________________________________________
dense_1 (Dense)              (None, 200)               1600200   
_________________________________________________________________
dense_2 (Dense)              (None, 12)                2412      
=================================================================
Total params: 14,874,262
Trainable params: 14,874,262
Non-trainable params: 0
_________________________________________________________________
['loss', 'acc']
Train on 14031 samples, validate on 3508 samples
Epoch 1/4

  128/14031 [..............................] - ETA: 1:32 - loss: 2.4877 - acc: 0.0859
  256/14031 [..............................] - ETA: 1:06 - loss: 2.5063 - acc: 0.1172
…
